Model: "functional_4"
┏━━━━━━━━━━━━━━━━━━━━━━━━━━━━━━━━━┳━━━━━━━━━━━━━━━━━━━━━━━━┳━━━━━━━━━━━━━━━┓
┃ Layer (type)                    ┃ Output Shape           ┃       Param # ┃
┡━━━━━━━━━━━━━━━━━━━━━━━━━━━━━━━━━╇━━━━━━━━━━━━━━━━━━━━━━━━╇━━━━━━━━━━━━━━━┩
│ input_layer_9 (InputLayer)      │ (None, 224, 224, 3)    │             0 │
├─────────────────────────────────┼────────────────────────┼───────────────┤
│ vgg16 (Functional)              │ (None, 7, 7, 512)      │    14,714,688 │
├─────────────────────────────────┼────────────────────────┼───────────────┤
│ global_average_pooling2d_4      │ (None, 512)            │             0 │
│ (GlobalAveragePooling2D)        │                        │               │
├─────────────────────────────────┼────────────────────────┼───────────────┤
│ batch_normalization_8           │ (None, 512)            │         2,048 │
│ (BatchNormalization)            │                        │               │
├─────────────────────────────────┼────────────────────────┼───────────────┤
│ dense_12 (Dense)                │ (None, 512)            │       262,656 │
├─────────────────────────────────┼────────────────────────┼───────────────┤
│ dropout_8 (Dropout)             │ (None, 512)            │             0 │
├─────────────────────────────────┼────────────────────────┼───────────────┤
│ dense_13 (Dense)                │ (None, 256)            │       131,328 │
├─────────────────────────────────┼────────────────────────┼───────────────┤
│ dropout_9 (Dropout)             │ (None, 256)            │             0 │
├─────────────────────────────────┼────────────────────────┼───────────────┤
│ dense_14 (Dense)                │ (None, 4)              │         1,028 │
└─────────────────────────────────┴────────────────────────┴───────────────┘
 Total params: 41,862,222 (159.69 MB)
 Trainable params: 13,375,236 (51.02 MB)
 Non-trainable params: 1,736,512 (6.62 MB)
 Optimizer params: 26,750,474 (102.04 MB)

