Model: "functional_3"
┏━━━━━━━━━━━━━━━━━━━━━━━━━━━━━━━━━┳━━━━━━━━━━━━━━━━━━━━━━━━┳━━━━━━━━━━━━━━━┓
┃ Layer (type)                    ┃ Output Shape           ┃       Param # ┃
┡━━━━━━━━━━━━━━━━━━━━━━━━━━━━━━━━━╇━━━━━━━━━━━━━━━━━━━━━━━━╇━━━━━━━━━━━━━━━┩
│ input_layer_7 (InputLayer)      │ (None, 299, 299, 3)    │             0 │
├─────────────────────────────────┼────────────────────────┼───────────────┤
│ xception (Functional)           │ (None, 10, 10, 2048)   │    20,861,480 │
├─────────────────────────────────┼────────────────────────┼───────────────┤
│ global_average_pooling2d_3      │ (None, 2048)           │             0 │
│ (GlobalAveragePooling2D)        │                        │               │
├─────────────────────────────────┼────────────────────────┼───────────────┤
│ batch_normalization_7           │ (None, 2048)           │         8,192 │
│ (BatchNormalization)            │                        │               │
├─────────────────────────────────┼────────────────────────┼───────────────┤
│ dense_9 (Dense)                 │ (None, 512)            │     1,049,088 │
├─────────────────────────────────┼────────────────────────┼───────────────┤
│ dropout_6 (Dropout)             │ (None, 512)            │             0 │
├─────────────────────────────────┼────────────────────────┼───────────────┤
│ dense_10 (Dense)                │ (None, 256)            │       131,328 │
├─────────────────────────────────┼────────────────────────┼───────────────┤
│ dropout_7 (Dropout)             │ (None, 256)            │             0 │
├─────────────────────────────────┼────────────────────────┼───────────────┤
│ dense_11 (Dense)                │ (None, 4)              │         1,028 │
└─────────────────────────────────┴────────────────────────┴───────────────┘
 Total params: 30,755,638 (117.32 MB)
 Trainable params: 4,352,260 (16.60 MB)
 Non-trainable params: 17,698,856 (67.52 MB)
 Optimizer params: 8,704,522 (33.21 MB)

